models/ppo_forex_model/policy.pth (torch, 162162 bytes, 11 tensors)

mlp_extractor.policy_net.0.weight f4 [64, 240]
0	0xbd83d810	-0.06437695
1	0xbdc7baad	-0.097524025
2	0xbdf125ae	-0.11774765
3	0xbb801d59	-0.0039097485
4	0x3cccaf57	0.024985952
5	0xbda13841	-0.07872058
6	0xbd25a076	-0.04043623
7	0xbdae8f4d	-0.08523426
8	0xbb9e385a	-0.004828495
9	0xbd065b52	-0.032801934
10	0xbb714eb3	-0.003682059
11	0xbb8bc0e0	-0.004264936
12	0x3dc904f2	0.09815396
13	0x3e25bc4c	0.16185111
14	0x3c14ede8	0.009089924
15	0xbcbe3925	-0.023220608
16	0xb91dd1bb	-0.00015050817
17	0x3cb8b065	0.022545049
18	0xbd224acc	-0.039622113
19	0x3cb48179	0.022034394
20	0xbd2d2ca4	-0.0422789
21	0x3d8eae84	0.0696688
22	0x3e02c4c4	0.12770373
23	0xbe437d5c	-0.1909079
24	0x3c730174	0.014831889
25	0x3e1b17b7	0.15145765
26	0xbdbc3ed8	-0.09191674
27	0x3cfcafa0	0.030845463
28	0xbc39358f	-0.011304273
29	0xbb8cd71c	-0.004298104
30	0xbe31c0da	-0.17358723
31	0x3d5d84ad	0.054081608
32	0x3cdcf58f	0.02697256
33	0x3dba6995	0.091021694
34	0x3dd36add	0.10323117
35	0x3dcf0f34	0.10110322
36	0x3d9b16e0	0.075727224
37	0x3ca8933c	0.02057802
38	0xbbced36e	-0.0063118255
39	0x3d07d986	0.03316643
40	0x3d7d41ea	0.06183044
41	0xbdaadf6b	-0.08343395
42	0x3e0ca9d0	0.13736653
43	0x3b9c2c26	0.004766005
44	0xbd4f8b42	-0.050669916
45	0x3da9d7ea	0.082931355
46	0x3c3d2076	0.011543384
47	0x3d84de8e	0.064877614
48	0xbccc7f32	-0.024962995
49	0xbcd0b9af	-0.025479166
50	0xbdd23bbe	-0.10265301
51	0xbe025f28	-0.12731612
52	0x3c53cbc9	0.012927004
53	0xbdc0e360	-0.09418368
54	0x3dba30f9	0.09091372
55	0xbe351e8b	-0.17687432
56	0xbe6d98bf	-0.232028
57	0x3e1b0b47	0.1514102
58	0x3daa84f1	0.08326138
59	0x3d8825db	0.06647845
60	0xbd3f4e7f	-0.04670572
61	0xbd1151e5	-0.03547849
62	0xbdf07756	-0.117415115
63	0xbd814f98	-0.063140094
64	0x3d461c6a	0.04836694
65	0x3d5cffb6	0.053954802
66	0xbdf00bed	-0.11721025
67	0x3db9739d	0.090552546
68	0xbda2a243	-0.07941105
69	0xbe32bd0e	-0.17454931
70	0xbdd23da4	-0.10265663
71	0x3c985585	0.018595466
72	0x3db76f8a	0.08956821
73	0xbc449fcb	-0.012000988
74	0xbdbf421a	-0.0933878
75	0x3db2e753	0.08735528
76	0x3d8ec02e	0.06970249
77	0xbdde038d	-0.10840521
78	0xbd7d7476	-0.061878644
79	0xbd847e56	-0.06469409
80	0x3db1ec3e	0.08687638
81	0xbd1a1d22	-0.03762544
82	0x3dd60f87	0.1045218
83	0xbe0a7ff1	-0.13525368
84	0x3d015af1	0.03158087
85	0x3d95fd45	0.07323698
86	0xbcfcf193	-0.03087691
87	0xbbc23a39	-0.005927351
88	0xbd993519	-0.07480831
89	0xbdc01a28	-0.09379989
90	0x3e2b9d5c	0.16759247
91	0x3da88491	0.0822841
92	0xbe21db3b	-0.15806286
93	0x3dc65e72	0.09685983
94	0xbe34917d	-0.17633624
95	0xbdffe648	-0.124950945
96	0x3d8dc9ea	0.06923278
97	0xbdbd98e0	-0.09257674
98	0x3bb98b13	0.005662331
99	0x3e509b18	0.20371664
100	0x3cfd0e1d	0.030890519
101	0x3de05dfb	0.10955425
102	0xbd90f8c6	-0.070787
103	0x3d446b06	0.047953628
104	0x3ce6c3dd	0.028169567
105	0x3c1a8a3b	0.009432371
106	0x3ca6fc20	0.020383894
107	0xbcf0ec6f	-0.029409615
108	0x3d52a160	0.05142343
109	0xbd6319c0	-0.05544448
110	0xbdac9523	-0.08426883
111	0x3e2e432f	0.17017816
112	0xbbef679d	-0.007306053
113	0xbd648c7a	-0.05579803
114	0xbc915ff2	-0.017745946
115	0xbc9df364	-0.019281097
116	0xbd56d44c	-0.052448556
117	0x3b26940f	0.002541784
118	0xbd2fece0	-0.04295051
119	0x3dd4b3fc	0.10385892
120	0xbd29673f	-0.04135823
121	0x3c53809d	0.012909082
122	0x3e3e615a	0.18591824
123	0xbe43cf98	-0.1912216
124	0x3dee1eb9	0.11626954
125	0x3ddfe145	0.10931639
126	0x3cb8b553	0.0225474
127	0xbdb89ac6	-0.09013896
128	0xbd295b2a	-0.041346706
129	0x3e18ba25	0.14914759
130	0xbdbcdd92	-0.09221949
131	0xbdb05e31	-0.086117156
132	0xbd933e7e	-0.07189654
133	0x3d7924f1	0.060826246
134	0xbd280782	-0.041022785
135	0xbe2deded	-0.16985293
136	0xbd8bef30	-0.06832731
137	0x3ce4a333	0.02790985
138	0x3d87624a	0.06610544
139	0xbe503c8f	-0.20335601
140	0x3dbd61e7	0.09247189
141	0xbd9d860d	-0.07691584
142	0xbd1b101b	-0.037857156
143	0x3c8f80b2	0.017517421
144	0x3d1351a0	0.035966516
145	0xbdb23801	-0.08702088
146	0xbde2dd7f	-0.11077403
147	0x3cbc92e9	0.023019271
148	0x3db95a42	0.090504184
149	0x3e18006b	0.1484391
150	0x3d8374f8	0.064187944
151	0x3d9828f5	0.07429687
152	0xbcfafc69	-0.030637937
153	0x3d318a0e	0.04334455
154	0xb9a4c49f	-0.00031427012
155	0xbdcdcc7e	-0.100487694
156	0xbdcad8af	-0.0990461
157	0x3e72f7f1	0.23727395
158	0x3dc8e3af	0.09809052
159	0xbd37f69a	-0.044912912
160	0x3d964c64	0.07338789
161	0x3dbab951	0.091173775
162	0x3e3092dd	0.17243524
163	0xbcc88b95	-0.02448062
164	0x3b8deeea	0.0043314593
165	0xbd8a3c0f	-0.067497365
166	0x3e06cfbe	0.13165185
167	0x3cd4417b	0.02591013
168	0x3e28bedb	0.16479056
169	0x3d2a24cd	0.041539002
170	0xbd1c47b2	-0.03815431
171	0x3cc34462	0.023836318
172	0x3d82dc6f	0.063897006
173	0x3dd4f8be	0.10399006
174	0xbd89c6bb	-0.06727358
175	0xbca6df6d	-0.02037021
176	0x3e2c1ccf	0.16807865
177	0x3db1d917	0.08683985
178	0x3d2a9ffd	0.041656483
179	0x3c69e2c8	0.01427526
180	0x3d05dea8	0.032683045
181	0x3d335ec5	0.04379155
182	0xbdb86378	-0.09003347
183	0x3dadd852	0.084885255
184	0xbd9c424e	-0.07629834
185	0xbd10aee2	-0.03532303
186	0xbd4efc7b	-0.050533753
187	0x3dd85a12	0.105640545
188	0x3e185987	0.14877902
189	0x3dc9392a	0.09825356
190	0xbd1c6c63	-0.038189303
191	0xbd439e43	-0.047758352
192	0xbdd87cae	-0.10570656
193	0xbdf422dc	-0.119207114
194	0x3e27a7d8	0.16372621
195	0xbe265037	-0.16241537
196	0xbd927735	-0.07151643
197	0xbda18e0a	-0.0788842
198	0xbdf54b75	-0.11977283
199	0xbcd10911	-0.025517019
200	0xbd7638b8	-0.060112685
201	0xbdd2ee6e	-0.10299383
202	0x3e129b71	0.14317109
203	0xbd082092	-0.033234186
204	0x3e0a781e	0.13522384
205	0x3e6635f4	0.22481519
206	0x3d3cc85c	0.046089515
207	0x3cb79bfa	0.022413243
208	0x3e048314	0.12940627
209	0xbdd2c8f2	-0.102922335
210	0xbd9cad7e	-0.076502785
211	0x3da2a43b	0.07941481
212	0x3d847775	0.06468097
213	0xbe2546b1	-0.16140248
214	0xbda424d8	-0.0801484
215	0xbd97e8a8	-0.074174225
216	0x3dffb08b	0.12484845
217	0x3da5e285	0.08099846
218	0xbd8ec8a0	-0.0697186
219	0x3ded03f6	0.11573021
220	0xbb6d9eec	-0.0036258055
221	0x3bf0c57a	0.00734776
222	0xbd57997d	-0.052636612
223	0x3da2ba32	0.0794567
224	0x3c9f09fb	0.019413939
225	0xbdfa7c6a	-0.12230761
226	0xbd8597df	-0.06523108
227	0x3d92c733	0.071669005
228	0x3d7c2ae5	0.061564345
229	0x3d784989	0.060617004
230	0x3d6a5ef4	0.05721946
231	0xbdfab457	-0.12241428
232	0xbd8875d9	-0.06663103
233	0x3dba51f3	0.09097662
234	0xbdf1c2c9	-0.118047304
235	0x3dd5d9d2	0.104419366
236	0xbda8c3a5	-0.08240441
237	0xbc49f5fd	-0.012326715
238	0xbddf6637	-0.10908168
239	0xbce27463	-0.027643388
240	0xbccd142e	-0.025034036
241	0xbde7e7fa	-0.11323543
242	0xbdd31b3a	-0.103079274
243	0xbd8a4c9b	-0.067528926
244	0x3d3605dc	0.04443918
245	0x3e178186	0.14795503
246	0xbda1f8f7	-0.079088144
247	0xbdb1b1fe	-0.086765274
248	0xbd12eade	-0.035868518
249	0x3e00a4e6	0.12562904
250	0x3cc627d4	0.024188913
251	0x3c1680c8	0.009185977
252	0x3dd1a67f	0.10236835
253	0x3c64b46f	0.013959034
254	0x3d070dce	0.03297215
255	0x3cc1b826	0.02364738

mlp_extractor.policy_net.0.bias f4 [64]
0	0x00000000	0.0
1	0xb2b0a895	-2.0565759e-08
2	0x3aec2bb4	0.0018018396
3	0x3b9eee88	0.0048502125
4	0x379d4588	1.8748236e-05
5	0x39792970	0.00023761927
6	0x38e1345a	0.00010738587
7	0xba2efcd1	-0.0006675246
8	0xbb4e3d45	-0.0031469625
9	0x3b726dc5	0.0036991697
10	0xbc041393	-0.0080613075
11	0x398e1cf6	0.00027105928
12	0x00000000	0.0
13	0x374f7ca1	1.2367179e-05
14	0x39fed05a	0.0004860189
15	0xbb138314	-0.0022508549
16	0x3b1510dd	0.0022745647
17	0x00000000	0.0
18	0xbb64109c	-0.003479994
19	0x3c2d90ce	0.010593606
20	0xbb5337e9	-0.003222937
21	0xbb707d8e	-0.003669593
22	0xbb856146	-0.004070434
23	0x3b34b75c	0.002757511
24	0x3b67c239	0.0035363568
25	0xb6d62aa5	-6.3826615e-06
26	0xbaf5c79d	-0.0018751506
27	0xbb783a8f	-0.00378767
28	0xbb9fd725	-0.004877942
29	0x00000000	0.0
30	0x3855c729	5.096864e-05
31	0x39db53ca	0.00041833363
32	0x3b219e1f	0.0024660898
33	0x00000000	0.0
34	0x3adf807e	0.0017051843
35	0x00000000	0.0
36	0x37a0f3fc	1.91871e-05
37	0xb582bfd2	-9.741582e-07
38	0xba79db36	-0.0009531261
39	0x3ae0820d	0.0017128602
40	0xba163a17	-0.0005730702
41	0x3afafeea	0.0019149457
42	0xb4b260c6	-3.3225496e-07
43	0x00000000	0.0
44	0x3b7d8c14	0.003868823
45	0xb2000966	-7.4527176e-09
46	0x3ba9f25f	0.0051863636
47	0x39661f66	0.00021946206
48	0xbbfbd481	-0.0076852445
49	0xbc0cc930	-0.008592889
50	0xbb15fcc4	-0.0022886256
51	0xbb1c7190	-0.00238714
52	0x39824514	0.00024847
53	0x00000000	0.0
54	0x00000000	0.0
55	0xbc130f35	-0.008975794
56	0xba70a7b4	-0.0009180263
57	0xbba5ccc1	-0.005059809
58	0xba5c6eeb	-0.0008408862
59	0x38bda8ca	9.043662e-05
60	0x3b1c335e	0.0023834328
61	0xb9c0a44c	-0.00036743504
62	0x38bc81be	8.988705e-05
63	0x3b3a18fb	0.0028396237

mlp_extractor.policy_net.2.weight f4 [64, 64]
0	0x3dc2ff9c	0.0952141
1	0xbe402414	-0.18763763
2	0x3e91c585	0.28471008
3	0x3dc9ac90	0.09847367
4	0xbd2123f2	-0.03934092
5	0x3dce8ea2	0.10085799
6	0x3e5ad305	0.2136956
7	0x3d0aacc6	0.033856176
8	0xbd9346dc	-0.0719125
9	0x3e2020bd	0.15637489
10	0x3a45ee73	0.00075504853
11	0xbe9c46ec	-0.3052286
12	0x3e582e78	0.21111476
13	0xbcb0b465	-0.021570394
14	0xbd1d7f19	-0.038451288
15	0x3d8f9805	0.07011417
16	0x3e8bf226	0.27333182
17	0x3de8c1f2	0.11365117
18	0x3ea40615	0.3203589
19	0x3e3ffe94	0.18749458
20	0x3e1fbb07	0.15598689
21	0xbe7c0c53	-0.24614076
22	0xbe68815a	-0.22705594
23	0x3e592d6b	0.21208732
24	0xbe9746c0	-0.29546165
25	0xbe986534	-0.29764712
26	0xbeb174d4	-0.34659445
27	0xbd9301fa	-0.071781114
28	0xbe797af3	-0.24363308
29	0xbd20e826	-0.039283894
30	0xbe64abc4	-0.22331148
31	0xbc72888f	-0.014803066
32	0x3e3c4ece	0.18389437
33	0x3e1356e2	0.14388612
34	0xbe01d6b6	-0.12679562
35	0xbdac2fc6	-0.084075496
36	0xbd8930a7	-0.06698733
37	0xbeb4b8a7	-0.3529713
38	0xbe395e99	-0.18102492
39	0xbe1f2f95	-0.15545495
40	0x3e4464fc	0.19179147
41	0xbd22c167	-0.039735224
42	0xbe154f4a	-0.14581028
43	0x3e3dc503	0.18532185
44	0xbe80d506	-0.25162524
45	0x3d0e0696	0.03467425
46	0x3db4de39	0.08831448
47	0xbe104210	-0.14087701
48	0x3e284b79	0.1643504
49	0x3d5b2b51	0.053508107
50	0xbd7c2deb	-0.06156723
51	0x3cb0f7d6	0.021602552
52	0x3dc5c1cf	0.09656107
53	0x3d567b0e	0.052363448
54	0x3e82e596	0.25565785
55	0xbe450e51	-0.19243743
56	0xbda20ac0	-0.07912207
57	0xbd038d34	-0.032117084
58	0x3d9bec91	0.07613481
59	0xbe840c78	-0.25790763
60	0x3de2b769	0.11070139
61	0x3d407b5b	0.04699264
62	0xbec22822	-0.37921244
63	0xbda01cad	-0.078179695
64	0x3d610741	0.05493856
65	0x3e057fb1	0.13036992
66	0xbe5db707	-0.2165185
67	0x3da45744	0.08024457
68	0x3d85a8a3	0.065263055
69	0x3d1bc4d2	0.0380295
70	0x3d4e0c4e	0.050304703
71	0x3da91c45	0.08257345
72	0x3d952ad5	0.0728356
73	0xbdac5486	-0.08414559
74	0x3e2c85d1	0.16847922
75	0x3e58b6bd	0.21163459
76	0x3e5b6faf	0.21429323
77	0x3d654928	0.05597797
78	0xbdc203f0	-0.09473407
79	0xbde0cae3	-0.109761976
80	0xbe4ddfe0	-0.20104933
81	0x3e48e24f	0.1961758
82	0xbe1f0772	-0.15530184
83	0x3c8b9f6a	0.017043788
84	0xbdc5e277	-0.09662335
85	0xbe6229b6	-0.22086224
86	0x3e22d710	0.15902352
87	0x3ebba35a	0.36648065
88	0x3e86d88e	0.26337093
89	0x3e84acd5	0.2591311
90	0xbceaa8a0	-0.02864486
91	0x3e26be16	0.1628345
92	0x3d76b933	0.060235213
93	0x3d710507	0.058842685
94	0x3cae00de	0.021240648
95	0x3e550986	0.20804414
96	0x3d88dda7	0.06682902
97	0x3e5cf555	0.21577962
98	0x3dea374a	0.11436327
99	0x3e2aee67	0.16692506
100	0x3e1e280e	0.15444967
101	0xbe3b0079	-0.18261899
102	0xbed950e3	-0.42444524
103	0xbe636122	-0.22205022
104	0x3db3702e	0.08761631
105	0xbe87289f	-0.2639818
106	0x3edcba52	0.431109
107	0xbe997747	-0.29973814
108	0x3c3d5161	0.011555047
109	0x3dbe6715	0.09297005
110	0xbdfd7a91	-0.12376893
111	0xbe424a1d	-0.18973584
112	0x3d2739ab	0.04082648
113	0x3d8d4a7e	0.06898974
114	0x3de779ea	0.1130255
115	0xbcec90a0	-0.028877556
116	0xbce22dde	-0.027609762
117	0xbe70e69b	-0.23525469
118	0x3e90d396	0.28286427
119	0xbe3d519a	-0.1848816
120	0xbd875eb2	-0.066098586
121	0x3e1869f1	0.14884163
122	0x3e575314	0.21027786
123	0x3d844ec9	0.064603396
124	0xbecefc9e	-0.40427107
125	0x3dbaf4ee	0.09128748
126	0xbe837ec9	-0.25682667
127	0xbded809c	-0.11596796
128	0x3d06a265	0.032869715
129	0xbe4babc6	-0.19889745
130	0x3e16ea15	0.14737733
131	0xbf0ec079	-0.5576244
132	0x3e1be9ee	0.15225956
133	0x3d8715c2	0.06595947
134	0x3e58941a	0.21150246
135	0xbd68b760	-0.056815505
136	0x3e49e88f	0.1971762
137	0x3e6e427c	0.2326755
138	0x3d9ec8eb	0.07753166
139	0xbdbf994e	-0.093554124
140	0x3dc5ca98	0.09657782
141	0xbb8386c3	-0.0040138676
142	0x3d458e9e	0.048231713
143	0xbdc02848	-0.09382683
144	0x3e4de7e1	0.20107986
145	0x3e076711	0.1322291
146	0xbeb0fa0c	-0.3456577
147	0x3e290cdf	0.16508816
148	0xbd32a656	-0.04361566
149	0x3db1a34a	0.08673723
150	0x3c85b61b	0.016322186
151	0x3df68284	0.12036613
152	0xbe019a65	-0.12656553
153	0x3e47bca5	0.19505556
154	0xbdef90a3	-0.11697509
155	0xbe0f81b8	-0.14014328
156	0xbe22b886	-0.15890703
157	0x3c0cd4f3	0.008595693
158	0xbc4969f2	-0.012293326
159	0x3dc1f5eb	0.09470733
160	0xbd91e0f1	-0.07122982
161	0xbdcb04f6	-0.099130556
162	0x3eb2e296	0.34938496
163	0x3c57dea9	0.013175645
164	0x3e495a18	0.19663274
165	0x3e37a343	0.17933373
166	0x3d0b0ed3	0.033949684
167	0x3d3dbdec	0.0463237
168	0xbc8a9d04	-0.016920574
169	0x3cc6d8ff	0.024273394
170	0xbda3e697	-0.08002966
171	0xbeb87e67	-0.36033937
172	0x3e435c2e	0.19078133
173	0x3ed8297f	0.4221916
174	0x3e706d38	0.23479164
175	0xbea8686a	-0.32892162
176	0x3ce500f8	0.027954563
177	0xbe115c78	-0.1419543
178	0xbe620d25	-0.22075327
179	0x3ea1f3cf	0.31631324
180	0x3e0749dd	0.1321177
181	0xbdb59d5d	-0.08867905
182	0x3e13fe4b	0.14452474
183	0xbd871d2a	-0.065973595
184	0x3e726483	0.23671155
185	0x3c9f4a5b	0.019444635
186	0x3df5e2fe	0.12006186
187	0xbd67e6a0	-0.056616426
188	0x3e4bee93	0.19915228
189	0xbe11bfaa	-0.1423327
190	0x3e2ad62a	0.1668326
191	0xbd44190e	-0.047875457
192	0x3e17ec87	0.14836322
193	0x3e172634	0.14760667
194	0xbd70e990	-0.058816493
195	0x3e3318f4	0.17489988
196	0xbe0af0b2	-0.1356838
197	0x3e68b7f9	0.2272643
198	0xbe3f5240	-0.1868372
199	0xbe5a037f	-0.21290396
200	0x3e69cc43	0.22831826
201	0x3c6d4988	0.014482863
202	0xbe1bf49e	-0.15230033
203	0xbd117d0f	-0.035519656
204	0xbbd592f9	-0.0065177646
205	0x3d82c94a	0.06386049
206	0x3ec7b9f1	0.3900905
207	0x3e2d23b1	0.16908146
208	0xbd48cba3	-0.049022328
209	0x3e197cdb	0.14989035
210	0x3cfbca29	0.030736046
211	0x3e02098d	0.12698956
212	0x3dc004d5	0.09375922
213	0x3e4a4ecf	0.19756626
214	0x3e5278c9	0.20553888
215	0x3ee7647f	0.4519386
216	0xbe098db6	-0.13432965
217	0xbe2ba5c9	-0.16762461
218	0xbe17efd2	-0.14837578
219	0xbd635f0f	-0.055510577
220	0x3dfced3f	0.123499386
221	0x3e41db35	0.18931277
222	0xbea982a4	-0.33107483
223	0x3d7a5d5d	0.061124194
224	0xbc6eb7de	-0.014570205
225	0xbe9e1cd0	-0.30881357
226	0x3d0a7a4e	0.033808045
227	0x3d0fb24f	0.035082158
228	0xbd001136	-0.031266414
229	0x3eb8d06b	0.3609651
230	0x3df93e30	0.121700644
231	0x3d7621ab	0.060090702
232	0x3e293667	0.16524659
233	0xbd91d9c4	-0.071216136
234	0x3bfc5db5	0.0077016004
235	0xbdc71af2	-0.09721936
236	0xbe48fe7f	-0.19628333
237	0xbd11b2a0	-0.03557074
238	0xbea2d3e1	-0.31802276
239	0x3e0db359	0.13837947
240	0x3a2df59a	0.0006636024
241	0xbd3849fa	-0.044992425
242	0xbc7274c3	-0.014798346
243	0x3e32ed09	0.17473234
244	0x3e234793	0.15945272
245	0x3cccbfc5	0.024993787
246	0x3d9c446f	0.0763024
247	0xbe8f1b0b	-0.2795032
248	0x3e19ac40	0.15007114
249	0x3dfb5f26	0.122740075
250	0x3e13c700	0.14431381
251	0x3ddf2775	0.10896198
252	0xbe5a8793	-0.2134078
253	0xbe478d91	-0.19487597
254	0xbda1dfa5	-0.07903985
255	0x3efc7dfa	0.49314862

mlp_extractor.policy_net.2.bias f4 [64]
0	0xbcaed142	-0.021340016
1	0x3ca17908	0.019711033
2	0x3c4f5115	0.012653609
3	0x3c46a1c7	0.012123532
4	0x3b073ad8	0.002063444
5	0x3ce26513	0.027636087
6	0x3ca2eb53	0.019887602
7	0xbc9f979a	-0.019481469
8	0x3cf245d0	0.029574305
9	0xbbbc9eff	-0.0057562585
10	0xbc965cb4	-0.018354751
11	0x3d0f6e93	0.03501756
12	0xbc287cf6	-0.010283699
13	0xbcc899f7	-0.024487479
14	0x3ce8f4ab	0.02843698
15	0x3c84ba24	0.01620204
16	0x3c589417	0.013218901
17	0xbd0d9e9a	-0.034575082
18	0x3bb38d6c	0.0054795053
19	0xbc40353f	-0.011731445
20	0xbb0b0d76	-0.002121774
21	0xbc05b74f	-0.00816138
22	0x3ca8d665	0.020610044
23	0xbd2f855f	-0.042851802
24	0xbc28d4e4	-0.010304663
25	0x3bd38cd0	0.006455995
26	0x3cc6ae11	0.024252923
27	0xbb8f84eb	-0.0043798587
28	0xbc516e21	-0.012782604
29	0x3c8cd039	0.017189132
30	0x3d3c69a1	0.045999173
31	0xbc612485	-0.013741617
32	0x3c9ad64b	0.018901011
33	0x3bc3ec6e	0.0059791123
34	0xbc0570cc	-0.008144569
35	0x3d0a0bf2	0.0337028
36	0xbcd133fc	-0.025537483
37	0xbc716d5a	-0.014735544
38	0x3bb2a257	0.0054514813
39	0x3be187ed	0.0068826587
40	0x3bfbc8e5	0.0076838606
41	0xbb9993f6	-0.004686828
42	0x3c73dc96	0.014884135
43	0x3be66282	0.007030786
44	0xbc10af29	-0.008830824
45	0x3b4fdf9b	0.0031718973
46	0x3d12c49c	0.035832033
47	0xbd0f6096	-0.03500422
48	0x3c77fe89	0.0151363695
49	0x3bfc94bc	0.00770816
50	0x3b587458	0.003302833
51	0x3bf47498	0.007460188
52	0xbcb80ebc	-0.022467963
53	0x3cd7f093	0.026359832
54	0x3c262ddf	0.010142772
55	0x3c4306b0	0.01190345
56	0xbb66b81d	-0.0035204955
57	0xbcba48fd	-0.022739882
58	0x3c1c4242	0.0095372815
59	0xbc9be5a2	-0.019030396
60	0x3cd9944d	0.026559973
61	0xbc0438ce	-0.008070184
62	0x3d38a1f0	0.04507631
63	0xbbb583fc	-0.0055394154

mlp_extractor.value_net.0.weight f4 [64, 240]
0	0x3e2e998a	0.17050758
1	0xbdb2a94d	-0.08723698
2	0xbdf0ab78	-0.11751455
3	0xbd170f03	-0.03687955
4	0x3d72e5b9	0.05930111
5	0x3da94b6b	0.08266338
6	0xbe042d4b	-0.12907903
7	0x3dfbecc7	0.12301021
8	0x3e1483f2	0.14503458
9	0xbd868202	-0.06567766
10	0x3d5e24dc	0.05423437
11	0x3c903929	0.017605381
12	0x3c125b89	0.0089329565
13	0x3cec97bd	0.028880948
14	0xbc08a89e	-0.008340983
15	0x3c29202f	0.010322615
16	0x3e1a8637	0.15090261
17	0x3bd3b501	0.0064607863
18	0xbe54aae3	-0.20768313
19	0x3e0ca6d3	0.13735513
20	0xbd0819dd	-0.03322779
21	0xbdafe987	-0.08589464
22	0xbd8051b3	-0.06265583
23	0xbd235000	-0.039871216
24	0xbd4d0d33	-0.050061416
25	0xbe0e0532	-0.1386917
26	0xbc48633b	-0.01223069
27	0x3bc1a47f	0.005909502
28	0xbd145cc7	-0.036221292
29	0x3d293558	0.04131064
30	0xbdaea516	-0.085275814
31	0xbe47c348	-0.19508088
32	0x3dabb5bd	0.08384273
33	0x3cc88833	0.024479007
34	0x3d6423ae	0.05569809
35	0xbe1bfa33	-0.15232162
36	0x3e2504db	0.16115133
37	0xbdea5273	-0.11441507
38	0x3df917d4	0.12162748
39	0xbd01b89b	-0.031670194
40	0x3e1d7e91	0.15380313
41	0xbcfe0d8b	-0.031012317
42	0x3ce82252	0.028336678
43	0xbddbcb6b	-0.10732158
44	0x3ddba4b0	0.10724771
45	0xbc68ce25	-0.014209305
46	0x3d0119a5	0.031518597
47	0xbe0a50de	-0.13507411
48	0x3e37431f	0.17896698
49	0xbe30d7ba	-0.17269793
50	0xbd712056	-0.05886873
51	0x3e3dc9ba	0.18533984
52	0x3d9b96fc	0.07597157
53	0x3e225cff	0.15855788
54	0xbcfdc775	-0.030978898
55	0x3db15088	0.08657938
56	0x3d438d97	0.047742452
57	0xbdb80a85	-0.089863814
58	0x3c16cbc6	0.009203857
59	0xbccc43f3	-0.024934744
60	0xbdb5bc7d	-0.08873842
61	0x3d4fe80a	0.0507584
62	0xbdfb0827	-0.12257414
63	0xbe54fa96	-0.20798716
64	0x3e041db0	0.1290195
65	0x3dccbc40	0.09996843
66	0xbd03021b	-0.03198443
67	0xbdb91086	-0.09036355
68	0xbd8973d9	-0.06711549
69	0x3ce80ee2	0.02832741
70	0xbd9b24e4	-0.07575396
71	0xbcdcaf6c	-0.026939116
72	0x3e3bb15e	0.18329379
73	0x3bf98b1b	0.0076154596
74	0xbdb65cb8	-0.089044034
75	0x3caf6dc8	0.021414652
76	0x3c7ebb2d	0.015547556
77	0xbc3dddef	-0.011588558
78	0x3d779eb9	0.060454104
79	0xbdf1584e	-0.11784421
80	0xb6f1da9a	-7.2078083e-06
81	0xbd571081	-0.052505974
82	0x3d2f052d	0.042729545
83	0x3d999543	0.074991725
84	0xbdaf137d	-0.08548639
85	0xbdb6683e	-0.08906601
86	0x3d399e46	0.045316957
87	0x3e3a5e95	0.18200143
88	0xbda2b0a6	-0.07943849
89	0x3d99285b	0.074784
90	0x3da43104	0.080171615
91	0x3bbf9741	0.0058468883
92	0x3df6e40c	0.12055215
93	0xbd8b8787	-0.06812959
94	0xbc9113a1	-0.017709555
95	0xbc699734	-0.014257241
96	0x3e1c059c	0.15236515
97	0xbc2433ea	-0.010022143
98	0xbddeb8a7	-0.108750634
99	0x3c51d17b	0.012806292
100	0x3e1daa98	0.15397108
101	0xbceb87ca	-0.028751273
102	0xbc22a618	-0.009927295
103	0xbdba2997	-0.09089964
104	0xbb1a27ce	-0.002352226
105	0x3bacade6	0.0052697537
106	0xb9ebf145	-0.00045002453
107	0x3d395c23	0.045253884
108	0xbd206b7c	-0.039165005
109	0xbe36e5f7	-0.17861162
110	0x3abe0fbd	0.001450054
111	0x3c679202	0.014133932
112	0x3df090d2	0.11746372
113	0xbdbf747e	-0.09348391
114	0x3d0cd7ef	0.034385618
115	0x3c848d12	0.016180549
116	0x3ddf5538	0.10904926
117	0xbdd376f3	-0.10325422
118	0x3e1f85c5	0.15578373
119	0x3d295112	0.04133708
120	0x3c2500c8	0.010070987
121	0xb930c044	-0.00016856292
122	0xbdf78b90	-0.12087166
123	0x3dc958fb	0.09831425
124	0xbdee2081	-0.116272934
125	0xbab2eb51	-0.0013650452
126	0xbe0c5c52	-0.13707092
127	0x3d3b38fd	0.045708645
128	0xbe1f8509	-0.15578093
129	0xbc313844	-0.010816637
130	0x3db6de8d	0.08929167
131	0x3e4f8c2f	0.2026832
132	0xbd11cf4c	-0.035598084
133	0x3e381f02	0.17980579
134	0xbca5ea3e	-0.020253297
135	0xbd1a8547	-0.03772476
136	0xbb8d2465	-0.004307317
137	0x3c1e8ac5	0.00967664
138	0xbd9c415b	-0.07629653
139	0x3d8779c3	0.06615021
140	0xbe18e2d8	-0.14930284
141	0x3dc11845	0.09428457
142	0x3df18022	0.117920175
143	0xbc81d0d1	-0.015846642
144	0x3ce0fcf5	0.02746437
145	0xbcc4db79	-0.024030434
146	0xbcc82292	-0.024430547
147	0xbd4480f8	-0.047974557
148	0x3d19a97a	0.03751514
149	0xbda26b3b	-0.07930609
150	0x3e1d69ca	0.15372387
151	0x3d94bfb2	0.072631255
152	0xbd509dac	-0.050931618
153	0x3dc9442b	0.09827455
154	0x3dc73899	0.09727592
155	0xbe02044f	-0.12696956
156	0xbcaa058d	-0.0207546
157	0xbd65724d	-0.05601721
158	0xbd43e247	-0.047823217
159	0x3da2ea50	0.07954848
160	0x3d861f07	0.06548887
161	0x3ddc82cc	0.10767135
162	0xbcd40ab7	-0.025884015
163	0xbd5127a9	-0.051063213
164	0x3d51e6c8	0.05124548
165	0xbcd0a13b	-0.025467506
166	0x3da3940f	0.07987224
167	0x3df7c5bd	0.120982625
168	0xbe00153e	-0.12508103
169	0xbdf41823	-0.11918666
170	0x3e3c343f	0.18379305
171	0x3e175651	0.14779021
172	0x3e09a536	0.13441929
173	0xbe07059e	-0.13185737
174	0x3da74ad6	0.08168571
175	0xbc925584	-0.017863043
176	0xbd1c6861	-0.03818548
177	0xbcde7bd6	-0.027158659
178	0xbcc5e236	-0.024155717
179	0x3dd3f266	0.10348968
180	0x3e419989	0.18906225
181	0x3e09f38d	0.13471813
182	0x3cbeae1d	0.023276383
183	0x3d4fd98a	0.05074457
184	0xbd4058ff	-0.046959873
185	0x3d092481	0.03348208
186	0x3dd5d187	0.10440355
187	0x3d1bcecc	0.038039014
188	0x3d576e57	0.052595463
189	0x3e28a097	0.1646751
190	0xbdf02b16	-0.11726968
191	0xbd465a17	-0.04842576
192	0x3d702c84	0.058636203
193	0xbc9c8d14	-0.01911024
194	0xbda7e12b	-0.08197244
195	0xbe3ef4f4	-0.1864813
196	0xbd90b205	-0.070652045
197	0x3e0a89f0	0.13529181
198	0xbd1ef6d3	-0.03880961
199	0xbd4f8c60	-0.05067098
200	0xbdc68de4	-0.09695032
201	0x3ce1f28a	0.027581472
202	0x3d84c5b5	0.06483022
203	0x3d4839ed	0.048883367
204	0x3d3b8ffe	0.04579162
205	0x3de7daf0	0.11321056
206	0x3de5daea	0.11223395
207	0x3d3b3160	0.045701385
208	0x3dc4318d	0.095797636
209	0x3d873735	0.06602327
210	0xbcece57f	-0.028918026
211	0x3d4bb87f	0.049736496
212	0xbcf58d87	-0.029974712
213	0x3dcd7bf7	0.1003341
214	0x3c310019	0.010803246
215	0xbcd4eb7d	-0.025991196
216	0x3ce9f9e6	0.028561544
217	0x3e37b3db	0.17939703
218	0xbdbd5696	-0.092450306
219	0x3bc1e213	0.0059168427
220	0xbd9f2579	-0.07770819
221	0x3d498b76	0.049205266
222	0x3d9b6966	0.075884625
223	0x3d6fd519	0.058552835
224	0xbda9f75d	-0.08299134
225	0x3da21d26	0.07915716
226	0x3d737556	0.059438072
227	0xbd24900b	-0.040176433
228	0x3e0b54b3	0.13606529
229	0xbd419718	-0.047263235
230	0x3d2eb33b	0.042651396
231	0x3c8c5794	0.017131604
232	0xbcc5fe92	-0.02416924
233	0xbd90826d	-0.07056127
234	0x3e0667df	0.13125561
235	0x3e43353f	0.1906328
236	0x3cdaf22a	0.026726801
237	0xbd8e1662	-0.06937863
238	0xbde763e8	-0.112983525
239	0xbd41bbc5	-0.04729821
240	0xbc2f0be6	-0.010683989
241	0x3dbfe2ef	0.09369456
242	0x3e1d2024	0.15344292
243	0x3d22bcf4	0.03973098
244	0xbd2a8313	-0.04162891
245	0xbd67d7b3	-0.05660219
246	0x3b5c6193	0.0033627495
247	0xbc081fd5	-0.008308371
248	0x3dd8c5c0	0.10584593
249	0x3d991ff6	0.07476799
250	0x3dfd56e9	0.123700924
251	0x3d725e23	0.059171807
252	0x3da076c4	0.07835153
253	0xbd2b7e6e	-0.04186862
254	0x3cb78d30	0.02240619
255	0x3ddad40a	0.106849745

mlp_extractor.value_net.0.bias f4 [64]
0	0x3be1c22d	0.0068896026
1	0x3a9bc3c0	0.00118839
2	0x3b28adad	0.0025738284
3	0x00000000	0.0
4	0x3a0b9421	0.0005324502
5	0xb8896242	-6.550971e-05
6	0xbbdda1ca	-0.0067636715
7	0xbb8b9e83	-0.0042608394
8	0x00000000	0.0
9	0x3bb36fa2	0.005475954
10	0x3afd7614	0.0019337558
11	0x398a7662	0.00026409613
12	0xba81ac03	-0.0009893182
13	0x3b01768e	0.0019754502
14	0x3802dea0	3.120175e-05
15	0xbba1e27a	-0.004940328
16	0x3b7fba5e	0.0039020996
17	0x3b79d5f9	0.0038121922
18	0x3b335b83	0.0027367778
19	0x00000000	0.0
20	0xbacdd032	-0.0015702306
21	0x39fff93d	0.00048823087
22	0x00000000	0.0
23	0x3b3bff4d	0.0028686107
24	0xbab560bc	-0.0013838033
25	0x3b2ec378	0.0026666801
26	0x3b146670	0.0022644065
27	0xba106871	-0.0005508727
28	0x00000000	0.0
29	0x3a9c30f7	0.0011916448
30	0xbb2bbb96	-0.002620434
31	0x3998cecf	0.00029145784
32	0x3af0ebe1	0.0018380844
33	0x00000000	0.0
34	0x38b643c6	8.69106e-05
35	0xbb3020fb	-0.0026875127
36	0x00000000	0.0
37	0x00000000	0.0
38	0xbb2fb5ce	-0.0026811245
39	0xbb1f65f1	-0.0024322236
40	0xba01128c	-0.0004923723
41	0x3afb74ef	0.0019184629
42	0xba5742e7	-0.00082115683
43	0x3a4e00b5	0.0007858382
44	0x3a7ee8be	0.00097240123
45	0xb9393cf4	-0.00017665682
46	0xb9b04be4	-0.0003362588
47	0x3b507ad4	0.0031811493
48	0xbbfaf482	-0.007658542
49	0x00000000	0.0
50	0x3b4e61ee	0.0031491476
51	0x3b987228	0.0046522804
52	0xbb57874a	-0.0032887035
53	0x00000000	0.0
54	0xb546ce73	-7.406117e-07
55	0xbad2e097	-0.0016088662
56	0x3b8c6707	0.0042847428
57	0x3b046d51	0.002020676
58	0xbc218886	-0.00985921
59	0xbb78fc15	-0.003799205
60	0xb9ea9ae3	-0.00044747358
61	0xba969671	-0.0011488927
62	0xbb41657c	-0.0029509952
63	0xba9b40af	-0.0011844839

mlp_extractor.value_net.2.weight f4 [64, 64]
0	0xbe0e2efe	-0.13885114
1	0xbc633f9e	-0.013870148
2	0xbd31b646	-0.04338672
3	0x3dda6586	0.10663895
4	0xbd661439	-0.05617163
5	0x3cd9a836	0.026569467
6	0xbdb4f27f	-0.08835315
7	0x3d376036	0.04476949
8	0xbe72124b	-0.2363979
9	0x3e2a6aab	0.16642253
10	0x3defcee3	0.117093824
11	0xbe97273d	-0.29522124
12	0xbd3a4bc7	-0.045482423
13	0xbdc14d29	-0.09438545
14	0xbe07deb7	-0.13268553
15	0x3ed415fa	0.41423017
16	0xbcc70ba6	-0.024297547
17	0xbe0452a4	-0.1292215
18	0x3d5cb39a	0.05388222
19	0xbe3336f1	-0.17501427
20	0xbe6eeae4	-0.23331791
21	0x3deab7e6	0.11460857
22	0xbd8f1ad9	-0.06987543
23	0xbdb789b4	-0.08961812
24	0xbd6a4546	-0.05719497
25	0xbe8eac2d	-0.27865735
26	0xbe787cc9	-0.24266352
27	0xbd2c1526	-0.042012356
28	0x3ea386f5	0.31938902
29	0xbeda58b7	-0.4264581
30	0x3e9fabd0	0.3118577
31	0xbe7db173	-0.24774723
32	0x3e1699d1	0.14707114
33	0xbdeff728	-0.11717063
34	0xbe261fe0	-0.16223097
35	0xbd32795d	-0.043572772
36	0xbe559e36	-0.20861134
37	0x3dcf3a84	0.10118583
38	0x3e00c76b	0.12576072
39	0xbdb6c6ae	-0.08924614
40	0xbdcfcc29	-0.10146362
41	0x3b971818	0.0046110265
42	0xbe2defe5	-0.16986044
43	0xbe32927e	-0.17438695
44	0x3e2f3d16	0.17113146
45	0x3d00a5fb	0.03140829
46	0x3e23a995	0.15982659
47	0x3de38377	0.11109059
48	0xbdc6640f	-0.096870534
49	0x3ea62942	0.32453352
50	0xbe86811a	-0.26270372
51	0x3e2001eb	0.15625732
52	0x3c1d26a1	0.009591729
53	0xbe71b3e1	-0.23603775
54	0x3d33e0e2	0.043915637
55	0x3e644181	0.22290613
56	0xbd5ffb5c	-0.054683074
57	0xbe6c1d88	-0.2305814
58	0xbd9ec9c7	-0.0775333
59	0xbe31cdd5	-0.17363675
60	0x3ec52650	0.38505793
61	0xbcc121e8	-0.023575738
62	0x3cc5850b	0.024111291
63	0xbe41c700	-0.18923569
64	0x3e26b6cc	0.16280669
65	0x3e2b9c2c	0.16758794
66	0xbe92e900	-0.2869339
67	0xbd9270fa	-0.07150455
68	0xbe59020e	-0.2119219
69	0xbe0f6eff	-0.14007185
70	0x3dd533cc	0.1041027
71	0x3db4d09d	0.08828852
72	0xbde4c98e	-0.11171256
73	0x3e01152f	0.12605737
74	0x3d353b03	0.04424573
75	0xbe22fe99	-0.15917434
76	0xbe88fbd8	-0.26754642
77	0xbe932c2c	-0.28744638
78	0xbdf3bc7c	-0.11901185
79	0xbe5d3c5d	-0.21605058
80	0x3d2c6e16	0.042097174
81	0x3e4086aa	0.1880137
82	0xbe609912	-0.21933392
83	0x3e0a3ed8	0.13500535
84	0xbe5b2a69	-0.21402897
85	0x3e3ce583	0.18446927
86	0x3dbcb8e2	0.09214951
87	0x3eabbfa0	0.33544636
88	0x3e01796c	0.12643975
89	0x3b2e4c15	0.0026595641
90	0x3e286a45	0.16446789
91	0xbe383a4d	-0.1799099
92	0x3d2be56e	0.041966848
93	0xbce314c1	-0.027719857
94	0x3ebffa27	0.3749554
95	0xbda5873e	-0.08082436
96	0x3ed73cc3	0.42038545
97	0xbe65c123	-0.22436957
98	0x3e0989e3	0.13431506
99	0x3d1aa936	0.03775903
100	0xbe764c7b	-0.24052612
101	0xbdf4d1b8	-0.11954063
102	0xbeb4764f	-0.35246512
103	0xbe336bfc	-0.17521662
104	0xbd548849	-0.051887784
105	0x3e2915fa	0.1651229
106	0x3c3f56b5	0.011678387
107	0xbd15014e	-0.036378197
108	0xbbf62ba2	-0.0075125257
109	0xbd77a3dc	-0.060459003
110	0x3e2494f9	0.16072454
111	0xbe9fd055	-0.31213632
112	0xbe053948	-0.13010132
113	0xbe7016c2	-0.23446181
114	0xbaaeb76b	-0.0013329809
115	0xbe054e40	-0.13018131
116	0xbc5a56f5	-0.013326396
117	0x3d7f046a	0.06226007
118	0x3ea8dfc6	0.32983226
119	0xbd11a351	-0.03555614
120	0x3cdb46ab	0.026767096
121	0x3e1511f0	0.14557624
122	0xbda2ee06	-0.079555556
123	0xbd29db8a	-0.041469134
124	0xbe4bffd4	-0.1992181
125	0xbe7d7d33	-0.24754791
126	0xbbb3fcd9	-0.0054927883
127	0x3e38d5ea	0.18050352
128	0xbe53e3eb	-0.20692413
129	0xbeaa7553	-0.33292636
130	0x3dc527d5	0.09626738
131	0xbd88ee3a	-0.06686063
132	0x3e5ba4ee	0.21449634
133	0xbeb5b008	-0.35485864
134	0x3e977162	0.29578692
135	0x3cf6814d	0.030090952
136	0xbecc3683	-0.3988534
137	0x3cbd9560	0.023142517
138	0xbde45d26	-0.11150579
139	0x3d955fd5	0.07293669
140	0x3e39c8b6	0.18142971
141	0xbd888ed2	-0.06667866
142	0x3cff6787	0.031177295
143	0xbdd8d0ba	-0.105866864
144	0x3d6277f3	0.055290174
145	0x3e5517c7	0.20809852
146	0x3dcec78d	0.10096655
147	0x3e468915	0.1938823
148	0x3e871a60	0.2638731
149	0x3e910a8d	0.28328362
150	0xbe83af05	-0.25719467
151	0x3d724a25	0.05915274
152	0xbe84807b	-0.25879273
153	0x3d753454	0.059864357
154	0x3d2f3cb5	0.042782504
155	0xbeb05c04	-0.34445202
156	0x3ddad552	0.10685219
157	0x3ce2810f	0.02764943
158	0x3e781a9d	0.24228902
159	0xbe380b6c	-0.17973107
160	0xbe163ea8	-0.14672339
161	0xbdcc4740	-0.09974527
162	0xbc25aa58	-0.010111414
163	0xbd3fd5b8	-0.046834677
164	0x3de2bc07	0.110710196
165	0xbdf5f430	-0.12009466
166	0xbd03120b	-0.03199963
167	0x3d4dbd58	0.0502294
168	0x3e45b599	0.19307555
169	0xbd638dff	-0.05555534
170	0x3e063f11	0.13109995
171	0x3e5bea16	0.21476015
172	0xbe4f9e2e	-0.20275185
173	0x3e09b115	0.13446458
174	0x3ea8bb8b	0.32955584
175	0x3e0a87f0	0.13528419
176	0x3e1440c4	0.14477831
177	0x3d2be573	0.041966867
178	0xbe573248	-0.21015275
179	0x3ab2c769	0.0013639751
180	0xbe6649a9	-0.22489037
181	0xbc57ece2	-0.013179036
182	0xbe738b62	-0.23783639
183	0xbdedfc50	-0.116203904
184	0x3e78f3b5	0.24311717
185	0xbdceb756	-0.10093562
186	0xbdd52b87	-0.10408693
187	0xbe341dea	-0.17589536
188	0x3da581f8	0.0808143
189	0xbdaccbe5	-0.08437327
190	0xbe190bbb	-0.14945881
191	0x3e442fde	0.19158885
192	0xbb40be55	-0.0029410322
193	0x3d5df55c	0.05418907
194	0x3e6790bf	0.2261381
195	0x3e60d0e0	0.2195468
196	0xbdfae71f	-0.12251114
197	0x3dbde2f0	0.092718005
198	0x3e3f3d87	0.18675815
199	0x3ea2f242	0.31825453
200	0x3e84b1c4	0.25916874
201	0x3c9c67c8	0.019092456
202	0x3e1a2a1d	0.15055127
203	0x3e8722bb	0.26393685
204	0x3e83110f	0.25598952
205	0x3d4de92c	0.0502712
206	0x3e676eb1	0.22600819
207	0x3e78d7c7	0.24301063
208	0xbc37b28c	-0.0112120025
209	0xbc3a557b	-0.011372919
210	0x3d8d30c9	0.06894071
211	0xbe04c7d2	-0.1296685
212	0x3e8784d1	0.26468518
213	0x3d0c7a7b	0.034296494
214	0xbca94e08	-0.020667091
215	0x3e9414aa	0.28922015
216	0x3de7b4be	0.11313771
217	0xbdfb8fb2	-0.12283267
218	0x3b8fa7c6	0.004384014
219	0xbe75b894	-0.23996192
220	0x3e3e302c	0.18573064
221	0xbd5b2094	-0.053497866
222	0x3e71e7e4	0.23623616
223	0xbcda0acf	-0.026616482
224	0x3d827ab4	0.0637106
225	0x3e6b2170	0.22961974
226	0x3e936934	0.287912
227	0x3c598086	0.013275271
228	0x3eb2676c	0.3484453
229	0xbc57a22a	-0.0131612215
230	0xbe932fa1	-0.28747275
231	0xbe7bd078	-0.24591243
232	0xbdc68d62	-0.096949354
233	0xbdb96746	-0.09052901
234	0xbe18277c	-0.14858812
235	0x3d038c3f	0.03211617
236	0x3e6c8812	0.23098782
237	0xbd26882a	-0.0406572
238	0xbd225700	-0.03963375
239	0xbbeaa9c1	-0.0071613495
240	0xbea694a1	-0.3253527
241	0x3d33740d	0.043811847
242	0xbd62b9b4	-0.05535288
243	0xbc0fcc67	-0.008776761
244	0xbe4840fa	-0.19556037
245	0x3e04c4a7	0.12965642
246	0xbe90cc54	-0.2828089
247	0x3d8b728b	0.06808957
248	0x3cf8bd8a	0.030363817
249	0xba93328d	-0.0011230275
250	0x3dc14b89	0.09438235
251	0x3c1c8fb8	0.00955575
252	0xbec06cd5	-0.37583032
253	0x3e65c1ca	0.22437206
254	0x3e99fffa	0.30078107
255	0x3c8fc146	0.017548215

mlp_extractor.value_net.2.bias f4 [64]
0	0xbd17bb64	-0.037043944
1	0xbcc74ab4	-0.024327613
2	0xbc105341	-0.008808912
3	0x391bcdf9	0.00014858683
4	0x3c0c6fec	0.008571606
5	0xbbaa7d2e	-0.005202911
6	0xbbe4dd1c	-0.006984366
7	0x3beca3be	0.007221668
8	0x3c69e47a	0.014275664
9	0x3c92742d	0.017877663
10	0x3cbd2fd5	0.023094097
11	0xbc97adf5	-0.018515566
12	0xbc7d7542	-0.015469851
13	0xbbcf83f4	-0.0063328687
14	0x3ad840a2	0.0016498754
15	0xbd4cd1ba	-0.0500047
16	0xbbbee68d	-0.0058258236
17	0x3cd7107d	0.02625298
18	0xbc23e40d	-0.010003102
19	0xbc29bb48	-0.010359593
20	0x3b8207c8	0.0039682128
21	0xbc6d76e6	-0.01449368
22	0x3cf40876	0.02978919
23	0xbcc28c7c	-0.023748629
24	0x3c137b7c	0.009001609
25	0x3c9233ce	0.017846968
26	0xbade5d21	-0.001696501
27	0xbbb6be01	-0.0055768494
28	0xbb9b721b	-0.004743827
29	0x3af6bc48	0.0018824423
30	0xba9e1fd5	-0.001206393
31	0x3cd8fb6c	0.026487075
32	0x3b53eeb4	0.0032338323
33	0xbc71fcd2	-0.01476975
34	0xba9ab6ec	-0.0011803783
35	0xbcbfca87	-0.023412002
36	0x3c9124ce	0.017717745
37	0xbcad8c37	-0.021185024
38	0x3c172477	0.0092250025
39	0x3ad315c8	0.0016104514
40	0xbc810489	-0.015749233
41	0x3a2b2cc7	0.00065298047
42	0xbb6d8f4b	-0.003624874
43	0x3cca9939	0.024731265
44	0x3c82f3df	0.015985427
45	0xbc258963	-0.010103556
46	0x3c7cf7e2	0.015439959
47	0xbbfd617f	-0.0077325697
48	0xbb574822	-0.003284939
49	0x3cb24f65	0.021766374
50	0x3c39bc19	0.01133635
51	0xbaac3cad	-0.0013140641
52	0x3c6469ac	0.01394121
53	0x3c911087	0.017708076
54	0xbc59d27c	-0.013294812
55	0x3c3c7e43	0.0115047125
56	0xbcf1e58e	-0.029528406
57	0x3c575485	0.01314271
58	0x3a8376fd	0.0010029968
59	0xbcedb472	-0.029016707
60	0x3c5002cb	0.012695978
61	0xbc56000e	-0.0130615365
62	0x3bc4bf8d	0.00600428
63	0xbc812ac6	-0.015767466

action_net.weight f4 [3, 64]
0	0xbc01104f	-0.007877423
1	0x3d7fb1cc	0.06242542
2	0x3ca6354f	0.020289091
3	0x3d5f824a	0.054567613
4	0xbcb54b41	-0.02213061
5	0x3be5119b	0.006990624
6	0x3ca891ef	0.020577399
7	0x3c197529	0.009366312
8	0x3b3ed883	0.002912075
9	0xba078911	-0.0005170266
10	0x3c4b86a1	0.012422235
11	0x3c45a63b	0.012063558
12	0xbcab3c16	-0.020902675
13	0x3cb2f000	0.021842957
14	0x3c9df8e3	0.019283717
15	0x3c9c36e2	0.019069139
16	0xbd197281	-0.037462715
17	0xbd00e348	-0.031466752
18	0x3c80ef72	0.015739176
19	0x3c8bb499	0.01705389
20	0xbd384f2c	-0.04499738
21	0x3c302f37	0.010753444
22	0x3b2a258d	0.0025962323
23	0x3cc90814	0.024539985
24	0x3b40b7bd	0.0029406392
25	0x3d253bde	0.040340297
26	0x3d3cb912	0.046074934
27	0x3cd81209	0.026375787
28	0xbcd9c43a	-0.026582826
29	0x3cac4eab	0.021033606
30	0xbbae288f	-0.0053148936
31	0x3a991d8f	0.0011681783
32	0xbc7b5e15	-0.015342255
33	0x3d26633b	0.040621977
34	0x3c48bd31	0.012252138
35	0xbc52bdcc	-0.012862634
36	0x3d0ffba3	0.03515209
37	0x3afd32a5	0.0019317461
38	0xbcd78ef7	-0.026313288
39	0x3d0f854e	0.03503924
40	0x3b41633f	0.0029508618
41	0xbd5e458f	-0.054265555
42	0xbd086e7f	-0.033308502
43	0xbc7b9fc8	-0.015357919
44	0xbbfcc4c1	-0.0077138846
45	0xbcd3446e	-0.025789466
46	0xbd2c3b72	-0.04204888
47	0x3acc5b7e	0.0015591232
48	0x3c5684f2	0.01309322
49	0xbbd1ab7f	-0.0063986178
50	0xbcc7b91b	-0.024380257
51	0x3d021e04	0.031766906
52	0x3d2ab568	0.04167691
53	0x3cdca5c3	0.02693451
54	0xbc99cf11	-0.018775495
55	0xbd221b40	-0.03957677
56	0xbb7ee17e	-0.0038891728
57	0x3cb11037	0.021614177
58	0x3c6337e5	0.013868307
59	0x3d139820	0.03603375
60	0xbb9d62d2	-0.00480304
61	0x3cdf6e01	0.027274134
62	0x3c4833da	0.012219394
63	0x3cdc9ee6	0.026931237
64	0x3cb63ff1	0.022247287
65	0xbd25a22b	-0.04043786
66	0x3c92c170	0.017914504
67	0xbcba8277	-0.022767289
68	0xbaec87a6	-0.0018045797
69	0x3cdca579	0.026934372
70	0xbc6d5e32	-0.01448779
71	0x39a967c2	0.00032311497
72	0x3cbc1b7c	0.022962324
73	0x3c310c3a	0.010806138
74	0x3cedf97b	0.029049626
75	0xbcfdc0df	-0.030975757
76	0xbab6605a	-0.0013914213
77	0x3ced7793	0.028987681
78	0xbc62e4dd	-0.013848511
79	0xbc5d0016	-0.01348879
80	0xbc8c0d0b	-0.017096063
81	0x3c40ce2e	0.011767907
82	0xbc6913d6	-0.014225921
83	0x3bae58c1	0.005320639
84	0x3a10fbb5	0.00055306713
85	0x3bbe38a3	0.0058050915
86	0xbca073b0	-0.019586414
87	0xbc90e1a8	-0.017685726
88	0x3c5ae6d2	0.013360696
89	0x3cbed483	0.023294693
90	0x3a53829e	0.00080684747
91	0x3d16bf31	0.036803428
92	0x3d0ba56e	0.034093313
93	0xbc358b3c	-0.011080559
94	0x3ccafd06	0.024778854
95	0x3bfbe11d	0.0076867477
96	0x3bb59eca	0.005542611
97	0xbc239f08	-0.0099866465
98	0x3c57c0e3	0.013168546
99	0x3cbe7589	0.023249405
100	0xbc9f3901	-0.019436361
101	0x3bda3dd2	0.0066602016
102	0x3b4e56fd	0.0031484955
103	0xbce45b6e	-0.027875628
104	0x3c07074c	0.008241486
105	0x3d019c9f	0.031643506
106	0x3c57b085	0.013164644
107	0xbbf0416f	-0.007332019
108	0x3bdeba7d	0.0067971335
109	0x3cd3d553	0.025858557
110	0x3bb5a11f	0.005542889
111	0xbcd4cffe	-0.025978085
112	0xbcf30788	-0.029666677
113	0x3c11b08a	0.008892188
114	0x3cb32bad	0.021871412
115	0x3bd06360	0.0063595027
116	0xbd521622	-0.05129064
117	0xbd0c2c3d	-0.034221876
118	0xbce33740	-0.027736306
119	0xbcddfd7d	-0.027098412
120	0xbb2eb4fa	-0.0026658163
121	0x3c4c5d44	0.012473408
122	0xbc00c5de	-0.007859675
123	0xbbf2f8cc	-0.007414913
124	0xbcc8217c	-0.02443003
125	0x3c9dc030	0.019256681
126	0x3c92950c	0.017893337
127	0x3c642e65	0.013927077
128	0xbc8af7e1	-0.016963901
129	0xbc979dc4	-0.018507846
130	0xbd1abac9	-0.03777579
131	0xbcd1579e	-0.025554474
132	0x3cb1466b	0.021640023
133	0xbd0bbdd8	-0.034116596
134	0xbbbc0ca1	-0.00573881
135	0xbc1ab4b1	-0.009442494
136	0xbcabe27c	-0.02098202
137	0xbc218bd0	-0.009859994
138	0xbd3ff081	-0.04686022
139	0x3ca39809	0.019969957
140	0x3cb931ec	0.022606812
141	0xbd5f0d8d	-0.054456282
142	0xbba782d7	-0.005112033
143	0xbba25738	-0.004954245
144	0x3d5afe8b	0.053465407
145	0x3cabb0c5	0.020958314
146	0xb995ce88	-0.00028573372
147	0xbc8c010e	-0.017090347
148	0x3d329e71	0.043608133
149	0xbc876d78	-0.016531691
150	0x3c575879	0.013143652
151	0xbbd444bb	-0.00647792
152	0xbc703386	-0.014660722
153	0xbd7421c3	-0.05960251
154	0xbd22bee1	-0.039732818
155	0xbd7279e5	-0.05919828
156	0xbbe0a749	-0.0068558794
157	0xbc11ea60	-0.008905977
158	0xbcaa8400	-0.020814896
159	0xbc64ac43	-0.013957086
160	0x3c369fc1	0.011146487
161	0xbcfdf847	-0.031002177
162	0xbcbeeb23	-0.023305481
163	0xbc3d3a90	-0.011549607
164	0xbc849ac7	-0.016187085
165	0xbb8f025f	-0.0043642963
166	0x3cb77f33	0.02239952
167	0xbc044f2d	-0.008075518
168	0xbc4bdccc	-0.012442779
169	0x3cd356b6	0.025798183
170	0x3cdc826b	0.026917657
171	0x3cbf430f	0.023347406
172	0x3b80f4c1	0.003935427
173	0xbb1d51a0	-0.002400495
174	0x3d003c80	0.031307697
175	0x3cba10b5	0.022713045
176	0x3c531d2d	0.012885374
177	0xbb82a190	-0.003986545
178	0x3b7b22b6	0.003832025
179	0xbd2019b1	-0.039087
180	0x3bfb7dac	0.0076748934
181	0x3b664052	0.0035133553
182	0x3d57baf9	0.052668545
183	0x3d70d031	0.058792297
184	0x3c0cea9e	0.008600859
185	0xbd094260	-0.033510566
186	0xbbb52a09	-0.0055286926
187	0xbcbfb745	-0.02340282
188	0x3ce32661	0.027728261
189	0xbd2762cf	-0.040865716
190	0xbcda3504	-0.026636608
191	0xbd205300	-0.039141655

action_net.bias f4 [3]
0	0x3ac373a2	0.0014911781
1	0xbc17ce31	-0.009265468
2	0x3c045407	0.008076674

value_net.weight f4 [1, 64]
0	0x3d9e13b7	0.07718604
1	0xbd8f297b	-0.06990334
2	0xbd73f70a	-0.059561767
3	0xbcb1660c	-0.021655105
4	0xbdab01db	-0.08349963
5	0xbe01e8d9	-0.1268648
6	0x3d9f45db	0.07776996
7	0xbd77ceb1	-0.06049985
8	0x3d0f3d17	0.03497037
9	0x3e024f1d	0.12725492
10	0x3d376741	0.044776205
11	0xbe45cd61	-0.19316627
12	0x3e39770e	0.18111822
13	0x3d8a6c46	0.06758933
14	0x3da5bc14	0.08092514
15	0x3e0d0f5a	0.13775387
16	0xbd89bd14	-0.06725517
17	0xbd8bd56f	-0.068278186
18	0x3ca6d1aa	0.020363647
19	0xbda7a4e2	-0.08185746
20	0x3ddea0b4	0.108704954
21	0x3d95a9ae	0.073077545
22	0x3dd48f0c	0.103788465
23	0x3d48fae1	0.04906738
24	0x3d11b9e8	0.035577685
25	0x3e7ae5c4	0.24501711
26	0x3de53329	0.11191399
27	0x3da5e1ef	0.08099734
28	0x3bf33919	0.007422578
29	0x3ceb32cf	0.02871075
30	0x3d0be7f8	0.03415677
31	0xbc4ab4a1	-0.012372167
32	0x3b579fc7	0.0032901631
33	0xbd2563c0	-0.040378332
34	0x3e3bce90	0.18340516
35	0xbe32b97e	-0.17453572
36	0x3e147f49	0.1450168
37	0xbd2aabff	-0.041667935
38	0x3d86b2aa	0.06577046
39	0xbe18d7c0	-0.14926052
40	0x3dea57c1	0.11442519
41	0x3d6301d3	0.05542166
42	0xbd43bcfd	-0.047787655
43	0xbe4a8a1a	-0.19779244
44	0xbd5616e7	-0.052267935
45	0xbd0f4b10	-0.034983695
46	0x3d467f44	0.048461214
47	0x3dc062a7	0.093938164
48	0x3cc7202b	0.024307331
49	0xbe08b99a	-0.13352051
50	0x3d055d17	0.03255948
51	0xbd660aba	-0.056162573
52	0x3d992e2d	0.074795105
53	0x3db9b558	0.09067792
54	0xbe0d4f26	-0.13799724
55	0x3ddba8ec	0.10725579
56	0x3e42393c	0.18967146
57	0x3c850b4e	0.016240742
58	0xbbada9b1	-0.00529977
59	0xbd4f3e5b	-0.050596576
60	0xbe05e671	-0.13076188
61	0xbd8ebf9d	-0.06970141
62	0xbc86824a	-0.016419549
63	0x3cb1cff8	0.021705613
